model/model80.pth (torch, 17167 bytes, 4 tensors)

linear1.weight f4 [256, 11]
0.5093552 -0.1487874 -0.35094452 0.6662222 -0.053687498 0.15512218 0.09478929 -0.1725749
-0.07315995 -0.5371929 -0.008029583 -0.00591148 0.45133296 -0.5842773 -0.28641167 0.54690725
0.14296234 0.30253145 -0.060071513 -0.08030977 0.2220305 -0.1780313 0.20797439 0.35921752
0.37520245 0.1540478 0.004489024 0.09223267 0.095101446 -0.018695295 -0.104681596 -0.07906329
0.030524231 0.07820643 0.09804148 -0.27547446 0.05614308 -0.32008514 -0.10982763 0.4529186
-0.25325036 -0.027438914 -0.27470076 -0.0007212368 -0.24444854 -0.30466047 0.6417869 -0.0006808762
-0.14186956 -0.13608377 -0.28122407 -0.09586622 0.11204191 0.110680036 -0.0865029 -0.017813455
-0.073067084 -0.5950051 0.17667893 0.30889216 0.4072971 0.28565514 -0.3680207 -0.34093055
-0.15134653 -0.18860023 0.11058537 0.2811936 1.025979 -0.04530061 -0.04439565 -0.5181683
-0.12763177 0.13984323 -0.23441802 -0.13436204 0.2092366 0.12301939 -0.2471864 0.42665762
-0.4324441 -0.19963658 0.25596315 -0.4180657 -0.33496374 0.19971839 0.29866526 0.25772038
-0.1618552 0.039266024 -0.21595517 0.04859091 0.22183263 0.16460145 0.16682872 -0.24273534
-0.27225405 -0.24766707 -0.23431219 -0.2507746 -0.0369797 -0.3479138 -0.7711393 0.0076538827
0.41362053 -0.3404587 0.10844881 -0.27147198 -0.7401804 0.40120244 0.16849597 0.11677166
-0.3411079 -0.49027884 0.35999417 0.50814897 -0.44068828 0.07331735 -0.10807076 0.115546376
-0.41105646 -0.23769924 0.23812628 -0.031521782 0.04559802 -0.13715936 0.0087328665 -0.067976624
-0.189894 0.0018457716 0.044580657 -0.011395991 -0.11670617 0.2405889 -0.11002865 -0.12470699
-0.25899532 -0.07836537 0.16465105 -0.26513177 -0.43200022 -0.3461633 -0.068614386 0.12287599
-0.7629615 -0.04914132 -0.32241282 -0.36945733 0.18965718 0.31808612 -0.52009696 -0.030548021
-0.055267517 -0.68657243 -0.05478395 -0.30526984 0.02686034 -0.11824098 -0.034175456 -0.07776302
-0.09548872 -0.21909511 -0.18346627 -0.25746998 -0.31574526 0.023749972 -0.41740954 0.32290882
0.46162662 0.24723972 -0.3041254 -0.24806073 0.14561425 -0.023864971 -0.71459603 -0.43390656
0.355541 0.6921715 0.7169195 -0.50041014 0.10196657 -0.36660415 -0.36820725 -0.11127891
-0.032000907 -0.2649529 -0.26650986 -0.2963532 0.15513077 -0.16685525 -0.09984629 -0.30252436
0.055007547 -0.46007544 -0.27891508 -0.00812142 -0.28329068 0.033196926 0.21607262 0.2947213
0.63254035 -0.15691102 -0.25624862 -0.3961238 -0.13484572 -0.26873675 -0.21221259 -0.060511842
-0.028378097 -0.072548926 0.047775146 -0.48866883 0.29567286 0.42616534 0.2748043 0.33829662
-0.06058517 -0.19693424 -0.3360714 -0.42435968 0.55458033 -0.4770843 0.19455752 0.12659366
-0.29308498 -0.15320258 -0.05483246 -0.34991726 -0.04078265 -0.33897576 -0.085543975 0.12849814
0.101322085 -0.2476561 -0.2126658 0.089012355 -0.016474336 -0.22820958 -0.27939442 -0.04088199
-0.29969704 -0.24374679 0.4420745 0.1369387 0.612766 -0.3107035 -0.35963514 0.056793664
0.1262698 0.08604106 -0.106542796 -0.1585032 -0.07119075 0.41690195 0.5345268 0.61462563
00000000: 1a65 023f b95b 18be 00af b3be 8a8d 2a3f
00000010: 6ce7 5bbd 59d8 1e3e e320 c23d 79b7 30be
00000020: e2d4 95bd 7985 09bf 838e 03bc 17b5 c1bb
00000030: 1d15 e73e 3293 15bf 8da4 92be 1d02 0c3f
00000040: b864 123e 67e5 9a3e 8c0d 76bd 7379 a4bd
00000050: f75b 633e d64d 36be 3df7 543e 5ceb b73e
00000060: 891a c03e b5be 1d3e aa18 933b 7be4 bc3d
00000070: 8cc4 c23d e026 99bc 4e63 d6bd efeb a1bd
00000080: f40d fa3c b12a a03d f9c9 c83d fd0a 8dbe
00000090: 49f6 653d 33e2 a3be 4fed e0bd f2e4 e73e
000000a0: 08aa 81be 93c7 e0bc 94a5 8cbe 6211 3dba
000000b0: b850 7abe 75fc 9bbe 254c 243f d47c 32ba
000000c0: 4146 11be 8b59 0bbe 9afc 8fbe 8255 c4bd
000000d0: 3b76 e53d 37ac e23d 6f28 b1bd 86ed 91bc
000000e0: 32a4 95bd 4152 18bf 52eb 343e 1d27 9e3e
000000f0: 3f89 d03e 6441 923e 366d bcbe 738e aebe
00000100: 96fa 1abe 6b20 41be 957a e23d 9cf8 8f3e
00000110: 4853 833f 228d 39bd 37d8 35bd ada6 04bf
00000120: e7b1 02be 1033 0f3e 470b 70be 3496 09be
00000130: 1f42 563e 97f1 fb3d 6f1e 7dbe de72 da3e
00000140: 5069 ddbe 886d 4cbe 9a0d 833e b50c d6be
00000150: 5e80 abbe fa82 4c3e a7ea 983e edf3 833e
00000160: 5fbd 25be 69d5 203d 5a23 5dbe 4307 473d
00000170: 1828 633e 488d 283e 26d5 2a3e 9d8f 78be
00000180: e264 8bbe 709c 7dbe 89ef 6fbe 8765 80be
00000190: 0778 17bd c221 b2be 6369 45bf 6ccd fa3b
000001a0: 12c6 d33e 9a50 aebe 691a de3d 60fe 8abe
000001b0: 767c 3dbf 686a cd3e 358a 2c3e fb25 ef3d
000001c0: b2a5 aebe d405 fbbe 2851 b83e 0d16 023f
000001d0: e5a1 e1be 6827 963d 3454 ddbd 94a3 ec3d
000001e0: fe75 d2be 6e67 73be 60d7 733e fc1c 01bd
000001f0: fdc4 3a3d 8173 0cbe 4c14 0f3c 5437 8bbd
00000200: 9373 42be d1ed f13a 359a 363d 40b6 3abc
00000210: a503 efbd f05c 763e b356 e1bd 6166 ffbd
00000220: 099b 84be 067e a0bd 499a 283e 5abf 87be
00000230: 222f ddbe 513c b1be b385 8cbd 68a6 fb3d
00000240: 7251 43bf 6948 49bd 4b13 a5be 8329 bdbe
00000250: 7e35 423e 2fdc a23e 1325 05bf d83f fabc
00000260: 3160 62bd 36c3 2fbf 2365 60bd 544c 9cbe
00000270: 370a dc3c 5428 f2bd 90fb 0bbd 3842 9fbd
00000280: 978f c3bd 785a 60be 95de 3bbe 1bd3 83be
00000290: 5da9 a1be 4d8f c23c b4b6 d5be 4e54 a53e
000002a0: 535a ec3e 692c 7d3e 53b6 9bbe a203 7ebe
000002b0: e71b 153e 7980 c3bc c4ef 36bf 0029 debe
000002c0: 7809 b63e 2732 313f 0988 373f e11a 00bf
000002d0: d9d3 d03d 8ab3 bbbe a985 bcbe 32e6 e3bd
000002e0: 6213 03bd e8a7 87be fb73 88be 9bbb 97be
000002f0: 9ada 1e3e 1adc 2abe 367c ccbd 79e4 9abe
00000300: 984f 613d 028f ebbe f5cd 8ebe b40f 05bc
00000310: 7a0b 91be 80f9 073d 2442 5d3e b6e5 963e
00000320: 2aee 213f 48ad 20be 0533 83be bdd0 cabe
00000330: ff14 0abe dd97 89be 424e 59be 44db 77bd
00000340: 2f79 e8bc 8894 94bd dfaf 433d cd32 fabe
00000350: 6f62 973e 5832 da3e 26b3 8c3e 3735 ad3e
00000360: 2828 78bd 21a9 49be 8d11 acbe ac45 d9be
00000370: faf8 0d3f 6544 f4be 163a 473e c5a1 013e
00000380: 3c0f 96be 23e1 1cbe 0098 60bd 5b28 b3be
00000390: b50b 27bd 3b8e adbe ae31 afbd 0495 033e
000003a0: f481 cf3d 9099 7dbe 10c5 59be 1c4c b63d
000003b0: 30f5 86bc c6af 69be c90c 8fbe e073 27bd
000003c0: e471 99be c298 79be 9757 e23e a939 0c3e
000003d0: 3cde 1c3f 8714 9fbe 1922 b8be 79a0 683d
000003e0: df4c 013e 4c36 b03d 1c33 dabd aa4e 22be
000003f0: 75cc 91bd 2c74 d53e c0d6 083f 1b58 1d3f

linear1.bias f4 [256]
-0.2525343 -0.17104404 -0.46391594 0.04700837 -0.40581146 0.92734843 -0.16556972 -0.35670912
0.6988631 0.166826 0.22594158 -0.3155285 -0.19514392 0.21870385 0.31238914 0.19314957
-0.13136663 -0.1677287 -0.1220529 0.81938237 -0.20288527 -0.23226286 -0.25233284 -0.012218161
-0.11409034 0.23371238 -0.34850112 -0.30668905 0.17554526 -0.18838117 1.0588992 -0.13687235
-0.43924597 -0.26601443 -0.030781027 -0.40498504 -0.27751526 -0.050682828 -0.35158834 -0.48076096
-0.44628364 0.34123218 -0.04775755 -0.09541598 0.052495368 0.3411976 0.010092049 0.30807698
0.058951344 0.2408598 0.19276215 -0.08437392 -0.24239148 -0.11803935 -0.47528058 0.1275383
-0.47713006 -0.2998592 0.6963574 -0.13318108 -0.084112294 -0.009794083 -0.14701363 -0.13798575
0.381617 -0.041522197 -0.38949874 0.08931902 -0.14004971 0.08787919 0.013971495 -0.26342446
-0.029759362 -0.13382527 -0.34016544 0.003454262 -0.085720256 0.013229196 -0.26693308 0.1429102
0.24252486 -0.11328965 -0.16916806 0.6242417 -0.36467752 0.32287958 -0.12662168 0.064220935
-0.4241321 -0.2893253 -0.2229256 -0.3122035 -0.38484654 0.4517424 -0.23004255 -0.31409165
-0.15146786 -0.19751368 -0.09596993 -0.35732877 -0.09405222 0.19263269 -0.038123477 0.044737853
-0.43444884 -0.3812166 -0.38454148 -0.35192373 0.20229633 0.15684426 0.2086367 0.13466738
-0.23242913 -0.2725946 -0.12738286 -0.39739206 0.08858392 -0.049648773 -0.042234354 -0.25649935
-0.2405223 -0.03622063 0.1196902 -0.058233157 -0.12246875 -0.13820545 -0.4338135 -0.19314818
-0.089086264 0.19616565 -0.33293465 -0.114895575 0.17377232 -0.01786509 -0.21560954 -0.15827101
-0.032380667 -0.36771145 -0.47528252 -0.14463852 -0.3521893 0.20052989 0.7406114 -0.30166465
-0.40370658 -0.10938872 -0.24260847 -0.00068802433 -0.30295148 -0.21347241 0.29178622 -0.16359878
-0.36694255 0.63459486 0.24687698 -0.2602788 -0.2584022 -0.15566483 0.004239863 -0.0028739742
0.1823976 -0.531698 -0.39854026 -0.087201536 -0.3017462 -0.03582889 -0.30653444 -0.040094152
-0.3569299 -0.3340415 -0.2400596 -0.34710622 0.31645662 -0.41731375 -0.24530783 0.22860228
0.025989717 -0.39352727 0.48523495 -0.1410006 1.1435217 -0.15097919 -0.12341645 -0.123002246
0.18138729 -0.25130436 -0.16232564 -0.2079834 0.48759595 0.027033627 -0.27798414 0.16773227
-0.19527158 -0.027190441 -0.1546571 -0.13211131 0.0050116894 -0.22800383 -0.5514946 0.04342378
-0.3254964 -0.34001783 0.2304785 -0.2342792 -0.27467915 0.011849892 -0.39907074 -0.3429996
-0.0019109971 0.102185056 -0.46258897 0.022508688 0.32901788 -0.37969437 0.34781373 0.28447688
0.17279117 -0.3329892 -0.28131315 0.14614867 0.40407076 0.16874342 -0.29228422 0.11442895
0.046538446 0.12220947 0.14098562 -0.028633455 -0.31730148 -0.28687057 0.70754457 -0.17127234
-0.08830746 0.041791204 0.5810774 0.12507457 0.26067314 -0.28800368 -0.09630836 -0.004997677
0.1758846 -0.25318637 -0.005233964 -0.02540374 -0.3703184 -0.042881574 -0.03963817 0.26550147
-0.24140944 -0.011739382 -0.14124358 -0.20552428 -0.40806785 -0.051554814 -0.17664307 -0.33885136
00000000: 2d4c 81be 2b26 2fbe 6486 edbe d98b 403d
00000010: 85c6 cfbe b566 6d3f 1c8b 29be 94a2 b6be
00000020: b1e8 323f 6fd4 2a3e 3b5d 673e f48c a1be
00000030: cfd3 47be e7f3 5f3e 78f1 9f3e 00c9 453e
00000040: f984 06be 13c1 2bbe dff6 f9bd 0bc3 513f
00000050: 28c1 4fbe 51d6 6dbe c531 81be ae2e 48bc
00000060: 32a8 e9bd 4c52 6f3e bd6e b2be 5906 9dbe
00000070: 23c2 333e fee6 40be 028a 873f 4428 0cbe
00000080: d9e4 e0be 0b33 88be 7e28 fcbc 335a cfbe
00000090: 7b16 8ebe cc98 4fbd 6303 b4be 4d26 f6be
000000a0: 4a7f e4be fcb5 ae3e 6c9d 43bd 7469 c3bd
000000b0: 6205 573d 74b1 ae3e 1f59 253c 44bc 9d3e
000000c0: f776 713d f4a3 763e 7163 453e 3ccc acbd
000000d0: 7935 78be 9dbe f1bd fa57 f3be 6699 023e
000000e0: 644a f4be 2587 99be 7b44 323f 9f60 08be
000000f0: 1143 acbd 5d77 20bc be8a 16be 234c 0dbe
00000100: 4e63 c33e 2e13 2abd 616c c7be e4ec b63d
00000110: 3169 0fbe 01fa b33d b3e8 643c 92df 86be
00000120: e8c9 f3bc 7e09 09be 2a2a aebe e660 623b
00000130: 1a8e afbd 45bf 583c 74ab 88be 0d57 123e
00000140: 7058 783e 6704 e8bd 643a 2dbe 4ece 1f3f
00000150: 03b7 babe 7950 a53e 1da9 01be 4486 833d
00000160: d827 d9be 7222 94be 9c46 64be 23d9 9fbe
00000170: 9b0a c5be c84a e73e 4690 6bbe 9fd0 a0be
00000180: 641a 1bbe 0741 4abe e28b c4bd ccf3 b6be
00000190: 739e c0bd 8141 453e 5d27 1cbd 0a3f 373d
000001a0: 1470 debe d22e c3be 9fe2 c4be 592f b4be
000001b0: c526 4f3e c89b 203e dca4 553e 3fe6 093e
000001c0: e701 6ebe 8591 8bbe a770 02be f976 cbbe
000001d0: 7c6b b53d 835c 4bbd eefd 2cbd e253 83be
000001e0: 7a4b 76be 155c 14bd 2320 f53d e485 6ebd
000001f0: e5d0 fabd bb85 0dbe ce1c debe a3c8 45be
00000200: dc72 b6bd a6df 483e 6976 aabe 5f4e ebbd
00000210: 5ff1 313e cf59 92bc bfc8 5cbe cc11 22be
00000220: 97a1 04bd ad44 bcbe 3b58 f3be 1f1c 14be
00000230: 2852 b4be b557 4d3e b598 3d3f ca73 9abe
00000240: a1b2 cebe 3107 e0bd 5b6e 78be 885c 34ba
00000250: 751c 9bbe 8398 5abe 0165 953e 7086 27be
00000260: e5df bbbe cf74 223f 52cd 7c3e 4343 85be
00000270: 4b4d 84be 9a66 1fbe 8cee 8a3b 4959 3cbb
00000280: 70c6 3a3e 5c1d 08bf 780d ccbe b896 b2bd
00000290: 7a7e 9abe 50c1 12bd 15f2 9cbe c439 24bd
000002a0: 84bf b6be 7d07 abbe 2fd2 75be e8b7 b1be
000002b0: 9a06 a23e 26aa d5be fa31 7bbe b716 6a3e
000002c0: 63e8 d43c 687c c9be b770 f83e 7662 10be
000002d0: eb5e 923f 4a9a 1abe c4c1 fcbd 9ae8 fbbd
000002e0: 97bd 393e f7aa 80be b138 26be 9af9 54be
000002f0: 2da6 f93e a075 dd3c f053 8ebe 02c2 2b3e
00000300: 46f5 47be 7dbe debc 6e5e 1ebe 3048 07be
00000310: 1939 a43b d679 69be c02e 0dbf 22dd 313d
00000320: 77a7 a6be d116 aebe 8e02 6c3e e3e6 6fbe
00000330: bfa2 8cbe 0d26 423c 0053 ccbe a59d afbe
00000340: 6c7a faba 6646 d13d 76d8 ecbe 2464 b83c
00000350: 0875 a83e 4d67 c2be a414 b23e f4a6 913e
00000360: 2bf0 303e 8f7d aabe 4708 90be ffa7 153e
00000370: 5de2 ce3e 13cb 2c3e 47a6 95be ba59 ea3d
00000380: 199f 3e3d f548 fa3d 895e 103e b590 eabc
00000390: 5775 a2be b3e0 92be a421 353f 0462 2fbe
000003a0: 8bda b4bd 412d 2b3d 7dc1 143f 8c13 003e
000003b0: f376 853e 3875 93be 513d c5bd 8ec3 a3bb
000003c0: 181b 343e a5a1 81be ac81 abbb 811b d0bc
000003d0: 609a bdbe 97a4 2fbd a25b 22bd cfef 873e
000003e0: 0934 77be 8956 40bc 28a2 10be f574 52be
000003f0: 45ee d0be 242b 53bd ece1 34be ed7d adbe

linear2.weight f4 [3, 256]
0.2028634 0.22890452 -0.04166933 0.017016094 0.08940399 0.32384047 -0.09561611 0.0068936306
0.16113089 -0.6528396 0.31147596 -0.06640389 0.12697637 0.13835049 -0.0036687437 0.46594027
-0.11062845 -0.08456295 -0.042495824 0.31102213 -0.3165379 -0.005738616 -0.06665642 -0.07145994
-0.10383759 0.3883648 -0.045214977 -0.118962705 0.15724131 0.004521398 0.37621307 0.28586793
-0.008832306 0.13329081 -0.019733196 0.061156385 -0.0012326781 0.30564305 -0.18483232 -0.033784367
0.03403874 0.23514153 0.09330658 -0.14578442 0.19913843 0.45293784 0.5091791 0.41970158
0.05641714 0.074741736 0.29322648 0.013670088 -0.4909075 0.43567273 -0.12586321 0.115458556
-0.0007200502 -0.03311498 0.2853536 0.08186109 0.07354514 0.5656139 -0.10622092 0.04793834
0.008734395 0.1808489 0.051757865 0.09297876 -0.04763736 0.12222976 0.42088035 -0.07696204
-0.060492046 0.07194815 0.109934546 0.3586719 -0.016287548 0.27810484 0.0643789 0.42545927
0.29450116 -0.09558921 -0.21548778 0.13361703 -0.09070584 0.27838206 0.21338937 0.7348088
0.20014292 -0.017527841 -0.084412545 -0.07057185 0.05212513 0.15607244 -0.10200618 -0.0042368695
-0.09633545 -0.09567156 0.33444625 -0.028245512 0.1534001 0.42638755 -0.006103382 0.30087683
0.18692946 0.085909985 0.0026627148 0.20508406 0.38369724 0.24382657 0.29960924 0.18238328
0.08209876 0.034389652 -0.17369433 -0.012593575 0.06239003 0.34654787 0.5063165 -0.025363341
-0.07074113 -0.33361036 0.30769727 0.008727804 0.1354883 -0.117521174 -0.20930026 -0.101086736
-0.03604782 0.1935651 -0.2632986 0.018100314 0.49745268 0.36043403 -0.19652294 -0.2328308
-0.113067105 0.18988451 0.05658275 -0.26299468 -0.1528533 0.27203128 0.34340253 -0.006285453
-0.1857019 0.44804475 -0.14611979 -0.22666276 -0.17466982 -0.09534587 0.17770635 -0.0153931435
0.10597863 0.29676938 0.43230683 -0.54835266 0.20342566 0.027152712 -0.113133125 -0.097753756
0.24523507 -0.023440938 0.063876644 -0.14368728 -0.002764193 -0.25846526 -0.05384499 0.24559939
-0.12295655 -0.111791186 -0.030362826 0.07866064 0.125914 -0.2007894 -0.11351281 0.5737475
0.6069661 -0.13818212 0.6608607 0.21254908 0.47541606 -0.07310817 -0.29446208 0.63268185
0.24487339 0.36855423 -0.013858448 -0.19111566 0.07729072 -0.063309744 0.31688923 0.30646574
-0.11526957 0.26891395 -0.017565042 0.02550672 -0.28682977 0.006337249 0.060876552 0.13539629
0.045963645 -0.0068317805 0.016175985 0.041114017 -0.24474981 0.012208053 -0.049499277 -0.028626587
0.017689826 0.3621674 -0.040092077 -0.63170063 0.67372423 -0.0594823 0.5500111 0.20426019
0.21136771 0.042551197 -0.22101177 0.174014 0.15849388 0.5200306 -0.017980158 0.39197835
0.010382817 -0.36214566 0.3069664 0.023608457 -0.06099175 -0.0052485336 0.18893184 0.024419235
0.485414 0.08562298 0.1651289 0.04756024 0.36942145 -0.022483695 -0.24434388 0.4226811
0.074968666 -0.12287488 0.2343673 -0.13079183 -0.051908243 0.12323234 -0.1174428 0.5353009
0.01310153 0.38894135 -0.083939254 -0.13041136 0.16410975 0.38517618 0.13860421 -0.3108208
00000000: 6cbb 4f3e f265 6a3e 76ad 2abd 5665 8b3c
00000010: 7019 b73d 6bce a53e 61d2 c3bd f7e3 e13b
00000020: 7fff 243e 7f20 27bf c779 9f3e c3fe 87bd
00000030: 1806 023e c0ab 0d3e 4e6f 70bb b98f ee3e
00000040: 2b91 e2bd 572f adbd 1a10 2ebd 4b3e 9f3e
00000050: 4111 a2be 000b bcbb 2983 88bd 9759 92bd
00000060: cda8 d4bd c0d7 c63e 5733 39bd b8a2 f3bd
00000070: de03 213e 3c28 943b 009f c03e 485d 923e
00000080: 60b5 10bc 637d 083e 83a7 a1bc 1e7f 7a3d
00000090: d091 a1ba 3f7d 9c3e af44 3dbe 7a61 0abd
000000a0: 356c 0b3d f1c8 703e 8517 bf3d 8348 15be
000000b0: f2ea 4b3e 78e7 e73e 9059 023f 20e3 d63e
000000c0: a915 673d 3212 993d c821 963e 81f8 5f3c
000000d0: 3a58 fbbe 7f10 df3e 49e2 00be 8975 ec3d
000000e0: c0c1 3cba 93a3 07bd de19 923e caa6 a73d
000000f0: d69e 963d 13cc 103f 5b8a d9bd fe5a 443d
00000100: b51a 0f3c 7430 393e 0e00 543d a66b be3d
00000110: 641f 43bd 9953 fa3d a17d d73e 469e 9dbd
00000120: 82c6 77bd 8d59 933d 5d25 e13d d8a3 b73e
00000130: 776d 85bc c263 8e3e 16d9 833d ccd5 d93e
00000140: dbc8 963e 47c4 c3bd d4a8 5cbe e7d2 083e
00000150: fcc3 b9bd 1888 8e3e be82 5a3e 6e1c 3c3f
00000160: 44f2 4c3e 8c96 8fbc 7ce0 acbd f987 90bd
00000170: 2981 553d 74d1 1f3e 9ee8 d0bd 70d5 8abb
00000180: 854b c5bd 73ef c3bd 8a3c ab3e 2263 e7bc
00000190: ea14 1d3e 784f da3e e1fe c7bb 870c 9a3e
000001a0: 706a 3f3e 93f1 af3d f180 2e3b 8e01 523e
000001b0: f773 c43e acad 793e 6266 993e afc2 3a3e
000001c0: 6523 a83d 2adc 0c3d eddc 31be 4855 4ebc
000001d0: b08c 7f3d b96e b13e f59d 013f c8c6 cfbc
000001e0: bae0 90bd face aabe 7f8a 9d3e 10ff 0e3c
000001f0: 72bd 0a3e f1ae f0bd cf52 56be 9006 cfbd
00000200: e1a6 13bd ee35 463e 13cf 86be 1c47 943c
00000210: 1eb2 fe3e cf8a b83e 4f3d 49be 326b 6ebe
00000220: ba8f e7bd 1671 423e 50c3 673d 3da7 86be
00000230: 9385 1cbe af47 8b3e 75d2 af3e 34f6 cdbb
00000240: a428 3ebe 1f66 e53e 6da0 15be 481a 68be
00000250: a5dc 32be b244 c3bd a7f8 353e 8633 7cbc
00000260: 530b d93d 28f2 973e 5257 dd3e d760 0cbf
00000270: d14e 503e 5d6f de3c 57b2 e7bd 1f33 c8bd
00000280: e71e 7b3e 3607 c0bc c2d1 823d c222 13be
00000290: 7727 35bb 8f55 84be 908c 5cbd 687e 7b3e
000002a0: a5d0 fbbd c7f2 e4bd 76bb f8bc d418 a13d
000002b0: 9aef 003e bd9b 4dbe 6779 e8bd 1ee1 123f
000002c0: 2162 1b3f 9d7f 0dbe 2b2e 293f 77a6 593e
000002d0: bc69 f33e bcb9 95bd bcc3 96be 70f7 213f
000002e0: 17c0 7a3e 24b3 bc3e 8b0e 63bc d3b3 43be
000002f0: 994a 9e3d 8aa8 81bd 4e3f a23e 14e9 9c3e
00000300: 7412 ecbd 17af 893e 90e4 8fbc 78f3 d03c
00000310: 5adb 92be b3a8 cf3b b159 793d 53a5 0a3e
00000320: 6044 3c3d 21dd dfbb 8083 843c 2c67 283d
00000330: b29f 7abe 4904 483c c1bf 4abd 4e82 eabc
00000340: 41ea 903c 016e b93e 9737 24bd 22b7 21bf
00000350: 3179 2c3f b6a3 73bd 87cd 0c3f 9529 513e
00000360: c770 583e 2a4a 2e3d e950 62be ba30 323e
00000370: 384c 223e ba20 053f 204b 93bc 63b1 c83e
00000380: b11c 2a3c 286b b9be b32a 9d3e 8666 c13c
00000390: 7cd2 79bd e4fb abbb 5977 413e d90a c83c
000003a0: 2f88 f83e 1a5b af3d 8d17 293e 87ce 423d
000003b0: cf24 bd3e ba2f b8bc 4835 7abe a869 d83e
000003c0: 2c89 993d d3a5 fbbd fbfd 6f3e 4bee 05be
000003d0: bd9d 54bd 3d61 fc3d da85 f0bd 7b09 093f
000003e0: cda7 563c 5223 c73e 58e8 abbd 8e8a 05be
000003f0: 630c 283e d035 c53e 43ee 0d3e e723 9fbe

linear2.bias f4 [3]
0.44512773 0.24068889 0.18794574
00000000: c8e7 e33e 2677 763e d974 403e
