model/model.pth (torch, 17167 bytes, 4 tensors)

linear1.weight f4 [256, 11]
00000000: 6e45 2a3e edf5 cf3d a600 263f 7fc0 44be
00000010: ab2e 453e 3732 853e 9851 a2bc 1d55 08be
00000020: 6d36 623e 9b67 6ebd 63f7 0f3d 1502 21be
00000030: ab93 d3bd 3434 00be a36b 0a3e a6ce 14be
00000040: a092 82be 12a2 7fbe d2f7 0f3e f280 00be
00000050: 6ec7 2a3d 1311 81be 6555 ba3e 59a3 943e
00000060: 744d 1d3f c1f0 5dbe 902d 063d 15b2 89be
00000070: c504 edbc 3f7c a4bd 9acf 3fbe c4ab f1bc
00000080: 93da 09be 4cbe 30be 8363 5fbd 609e 0e3e
00000090: 8ee6 553d bf75 883d 20d8 63be 7e58 433d
000000a0: af5d f4bc 7058 eebc ef56 a0be 2f12 93be
000000b0: c7f3 703e 1c1c d53c 9774 6ebe 852b 0d3e
000000c0: 8649 3a3b 14be 5a3e 3eb5 083b a719 13bc
000000d0: ef6b d6bd 9128 ee3d e9a7 39be cec2 913e
000000e0: 902f 8a3e d4e9 173f 4148 fe3d 41cb a83d
000000f0: adff 023d fe76 483c 1b9a 913c 71e3 19bc
00000100: cecf 2ebd fa71 c7bd 5319 af3e 282b 3b3d
00000110: 6ccf 9ebd 92e8 673e fb2c 773e f4b2 aabe
00000120: b848 dfbd 497d d5bd 3f88 303e 0834 743e
00000130: d839 1dbe c751 7e3e 557f bf3e acd8 2e3f
00000140: 13c2 413e 218e 6b3d 6c0d e6bd 2b3e 883d
00000150: 5ada 6dbe 3d89 c1be 29a6 69be 2b7a 45be
00000160: bd06 bd3e 4ae9 b73e 7a9a de3e 1b06 0d3e
00000170: a2a9 ce3d 94d1 18be 0422 84be 1b17 af3c
00000180: 4196 683c 97d2 5a3c db8e a9bd 986c b7bb
00000190: c183 d3bd afd8 bc3e 07c7 16be 7a03 eebd
000001a0: 9efd 443c d48e 4abd 7d8d 633e 6d89 c73d
000001b0: 9ab3 8abe b1f7 ecbd dfcc 243e 40de 5e3c
000001c0: a761 96be 2e24 863e 39d8 cf3d c423 b03d
000001d0: 8ebd e9bd f16e 2d3e 0ec4 84be bb9f 1cbe
000001e0: b46a 69be 7a2c 8e3e d4e5 de3e c861 e1be
000001f0: b60d 923e 42f3 903e 087f ab3e 931a aa3e
00000200: 68bb ebbd 5d2d dcbd 883c fcbd ebca 02be
00000210: 10c0 293d 52bb 30be e4fb 81be fa01 2d3e
00000220: 8f88 5d3e 4243 cf3d 9c9c 2b3d d2f5 973e
00000230: c212 7fbe a55f fe3d 9eb6 6abb 08f6 d33e
00000240: 871e 763e d1ad 69be 18f8 a9be 654c f23d
00000250: 034d 68bd 9097 8b3d 6909 8f3e 32d3 bdbd
00000260: 55e0 12be 54a0 51bd 6a57 c13d 350d 21be
00000270: 7ae5 9e3e 65e4 323e b230 a5be 8614 483e
00000280: e186 93be d9e6 01be 8b29 0a3e abbd 94bd
00000290: dcf1 98be 6fc3 ce3e aa1d 033f 5ea0 853e
000002a0: 0434 053d 96bb febd b4e1 1dbe aed4 ab3d
000002b0: 7536 78bd 56a1 c4bb 177e 0f3e f829 203e
000002c0: d252 023d aa94 843e 0067 d7be 0481 0b3e
000002d0: eeaa 0b3e af32 4c3e 8e19 ed3c 5c8b c13d
000002e0: 0da1 f43d e904 953e bc12 8c3d 6d68 693e
000002f0: 6854 cf3d 3740 473e 8105 843e 1402 cbbd
00000300: c00a 6bbb 630d 79be a996 34be 56eb a53c
00000310: 2017 5f3e 42d3 93be 67e3 00be fb14 cabd
00000320: 679a 58bc fbc5 64bd 8190 ae3d 12b8 27be
00000330: a6a8 a73d 3d61 97be 496f acbc a61e 663e
00000340: 2e88 713e fbf7 83be 9d42 8ebe 7cd4 3f3c
00000350: afb4 f13c 329c 2a3e c500 0d3e af8a 3dbe
00000360: b1e2 973e d0bf f8bd e047 04bd 7750 363e
00000370: 73b8 4bbe e6aa 1a3d d8b2 8ebe bef9 3f3e
00000380: be56 78bd 60fd 12be f509 413e c723 b63e
00000390: cebb 3d3e ad55 a23e e74e c2bd 286e 813d
000003a0: d40a b63c 220b b5be 0385 a5bc 4633 f4bd
000003b0: ce94 903c 6704 cbbd b5fd 9f3e f85d 8e3e
000003c0: 55ef 4c3e 5f2c 9a3d 99d1 d43d 8988 98bd
000003d0: fa8c c3bc aaf6 93be 00e9 4bbe 7212 c43c
000003e0: 6393 f9bc d948 80be f7cd 58be 7c65 6bbe
000003f0: 6588 40be c6eb 3ebe 45c9 49be 3de3 b6be
0.16628048 0.101543285 0.6484474 -0.19214056 0.19256084 0.26014873 -0.019814298 -0.13313718
0.22091074 -0.058204275 0.035148036 -0.1572345 -0.103309 -0.12519914 0.13517623 -0.14531955
-0.2550249 -0.24964169 0.1405938 -0.12549189 0.041694097 -0.2520834 0.36393276 0.29030874
0.6144631 -0.21673872 0.032758296 -0.26893678 -0.028932938 -0.080315106 -0.18731537 -0.02950085
-0.13462286 -0.17260092 -0.05453826 0.13927603 0.052221827 0.06663083 -0.22250414 0.047691815
-0.029829828 -0.029094905 -0.31316325 -0.2872481 0.23530494 0.02601438 -0.23286663 0.13786133
0.002842517 0.21361572 0.0020859982 -0.008978284 -0.104698054 0.11628831 -0.18130459 0.28468937
0.26989412 0.5934117 0.12416125 0.082418926 0.031982113 0.012235401 0.017773679 -0.009392605
-0.042678647 -0.09738536 0.34199008 0.045695454 -0.07754406 0.22647312 0.24138252 -0.33339655
-0.10902542 -0.10424287 0.17239474 0.23847973 -0.15354097 0.24835883 0.37401834 0.68299365
0.1892169 0.05750859 -0.11233029 0.066524826 -0.23227826 -0.37800017 -0.22817291 -0.19284885
0.36919203 0.35920173 0.4347723 0.1377186 0.10090949 -0.14923698 -0.25807202 0.021373322
0.01419598 0.013355873 -0.08279201 -0.005597662 -0.103278644 0.36884066 -0.1472436 -0.11621757
0.012023358 -0.049452618 0.22221942 0.09743009 -0.2709015 -0.11570681 0.16093777 0.013602793
-0.29371378 0.26199478 0.10148663 0.08600572 -0.11413108 0.16936852 -0.25930828 -0.15295307
-0.2279461 0.27768308 0.4353472 -0.44019914 0.28526086 0.2831059 0.33495355 0.332234
-0.11510354 -0.1075084 -0.12316233 -0.1277272 0.04144293 -0.17258957 -0.2538749 0.16895285
0.21634124 0.1012025 0.0418974 0.29679734 -0.249095 0.124205865 -0.0035814415 0.41398644
0.24035083 -0.22820212 -0.33197093 0.11830977 -0.05671407 0.06816018 0.27936867 -0.09268798
-0.14343388 -0.05117829 0.09440501 -0.15727694 0.31034452 0.17469938 -0.32263714 0.19539079
-0.28813842 -0.12685718 0.1349241 -0.07262739 -0.29872024 0.4038348 0.5121714 0.26098913
0.03252031 -0.12438123 -0.1541813 0.08390175 -0.06059881 -0.006000678 0.14012943 0.1564101
0.031817265 0.25894672 -0.4207077 0.13623434 0.13639423 0.1994121 0.02894285 0.09450409
0.119447805 0.2910531 0.06839511 0.22793742 0.10123521 0.1945809 0.2578545 -0.09912506
-0.0035864562 -0.24321513 -0.17635597 0.020253818 0.21786165 -0.28872114 -0.12586747 -0.09867283
-0.013220406 -0.05585287 0.08523656 -0.16378811 0.08186464 -0.29566374 -0.021049159 0.22472629
0.23587105 -0.25775132 -0.27785197 0.011708375 0.029505102 0.16661146 0.13769825 -0.18509935
0.2966514 -0.1214596 -0.032295108 0.17804132 -0.1989458 0.037760638 -0.27870822 0.18747613
-0.0606296 -0.14354467 0.18851455 0.3557417 0.18528673 0.3170599 -0.09487706 0.06319839
0.02222196 -0.35360056 -0.020205026 -0.11923842 0.01764908 -0.09912949 0.3124825 0.27806067
0.20013173 0.07527994 0.1039154 -0.07447917 -0.023870934 -0.28899127 -0.19913101 0.023934577
-0.030465787 -0.25055578 -0.2117232 -0.22987932 -0.1880203 -0.18644628 -0.19705684 -0.35720244

linear1.bias f4 [256]
00000000: 7c24 abbe 24e9 60be c4a1 233e 1ee1 2e3e
00000010: 988e 123e 58c3 adbe 7da6 ddbd 44d7 bf3d
00000020: 8447 53be be4b 8839 e3f6 1e3e c474 213c
00000030: 4d2a f9bd 9f00 ae3d bd0f b63e 3ed1 abbe
00000040: d2bf cebd d6ce 60be ff5c 69be 113c 0fbe
00000050: c646 103d 0221 973d a407 0d3e e9da 803e
00000060: acf9 aabd 6be0 543e d3a9 343e 6221 8fbd
00000070: f4e3 a6bd b9f7 68bd 4a56 f53d 90e8 a1bc
00000080: c117 c93e 7820 9c3d c144 2fbe 4c90 a8be
00000090: 1050 1e3e 8177 323e 90bb 63be 4994 823d
000000a0: 4e5d 033e 8b9f a9be ea3d 143e 2e25 583c
000000b0: 031d da3d a849 223e f707 f2bd 45dc af3c
000000c0: bd40 f03c 046f 93be ae1f c6bd 5e84 33be
000000d0: 1864 68be 0b2d 783d c703 e83d 66c4 d2bd
000000e0: 4b0e 01be 11cd 37be 2f97 e7bd 3899 0fbd
000000f0: 6cc5 0cbe 779d 603e 4286 fdbc 34be c93c
00000100: e262 19be 1856 5b3e 224d 3dbd 8bed 2cbe
00000110: d148 86be ff72 83be ef17 9a3d 02d6 d73d
00000120: 078d e03d f5d5 13be 6ed2 c8bd 1933 b1be
00000130: 426f 943d b292 33be 60a0 25bd 7604 d3bc
00000140: 606d 9bbd 5824 803d dd7f d33e cfce 32bd
00000150: 36c4 cbbc bcec cdbc 42d8 83be c776 af3c
00000160: b180 42be 77a9 0cbe bd19 acbb 0686 423e
00000170: 57ea b73e 510c d2bd 8145 6bbe 999d 07bd
00000180: f83a 17bc 73ef 6fbd 9765 f5bd 0639 5ebe
00000190: c312 81be f24c 0f3e 06db 1d3e a9cf 32be
000001a0: 9e2e 1abe 0de6 5d3e 410e ec3e 0913 203d
000001b0: ea81 653e 5101 47be 2236 653d 5d0d 9e3e
000001c0: 4a43 b33d ca4f 8a3d 0fca b9bd f785 f0bd
000001d0: 3f44 88bd 3eea c33e a937 abba a218 cbbc
000001e0: 04eb 3fbe b61b 41be 91ca ff3d af90 8bbe
000001f0: 58d4 e23e 6951 bc3d 5939 89be 675f 28be
00000200: 9ec0 0a3e fcaa 72be 1a5e b2bd 83d6 acbd
00000210: c620 32bd 91fc 72be 6a5d 5a3e 0b8c 9f3d
00000220: 07c2 f5bb eb56 5cbe 5bb9 02be 4b0c 9a3e
00000230: e766 893e ae57 84be 07dd 43be d1bb 1c3e
00000240: d326 dcbd 31e0 45be e180 ae3d e1bd 8a3e
00000250: 9115 ccbe aadb 5ebe 203a 5bbe 3df5 eabb
00000260: e3c6 54be 3b71 8e3c 4077 5fbc 042a 14be
00000270: 8b26 a53d 9ef1 d63d 647d 393e 552f 5a3e
00000280: 5bba 27be 2783 e23d 8c78 693e e9fc 0b3e
00000290: 6377 14bb 5117 283d d92d 473d f5c7 833e
000002a0: df52 a93c 4acc ff3d 88ba f83d 98b2 243c
000002b0: 63bd 3bbd c1c0 39be 2bac ba3c 1232 1f3e
000002c0: e1b1 26be 9e56 e6bd ceeb 2cbd ac48 353e
000002d0: dd79 8d3e 2d76 38bd e822 c33d 2621 863d
000002e0: 5530 1d3e ed9f 713b 1399 fc3d c602 53bc
000002f0: f327 73bb 8833 033a 8498 95be 8085 04be
00000300: e552 fdbd 488b bd3e d85a a23e a75b c8be
00000310: 7e02 483e 445e 39be 8dc9 c1be d555 95be
00000320: 9497 443e bc37 85bc 9154 c0be eb9e 093d
00000330: 2a8d ea3d 3623 a4be f0e6 463d 625b 9abe
00000340: fe77 113e 2251 7ebe 6848 10be d296 33bd
00000350: 3f1a 4abd d241 4dbe 03d9 a7bd 0794 963e
00000360: 7408 a33d 8713 c0bd d878 93bd b7fb 603e
00000370: 780d 833e ae31 07be e99e cebd 529b 0ebe
00000380: 26a8 253e 47b0 333d 08d2 d8bd 95f1 243e
00000390: 9cbf 74be ce9c 0c3e 2678 f83d fcb3 b93d
000003a0: 9fe5 4cbd 6622 473e 2e50 2d3d b256 8e3d
000003b0: 3539 37be ed52 d13d 4967 fc3d d164 f2bd
000003c0: 2f68 3cbe f837 91be c960 c3bd f744 a5be
000003d0: 392f 77be a919 5abc 4032 763d c3ef 0a3c
000003e0: 5abe 8fbe e88f b3be 5d43 9dbd ed48 f23d
000003f0: de9c 90be 3e67 5dbe c58c 2abe 866b ff3d
-0.33426273 -0.21963936 0.15979677 0.17078063 0.14312208 -0.33938098 -0.10822771 0.093672305
-0.2063275 0.00025996374 0.15523867 0.009854499 -0.12166271 0.08496212 0.35558882 -0.33558077
-0.100951806 -0.21953902 -0.22789381 -0.13987757 0.035223745 0.073793426 0.13772446 0.25167015
-0.083484024 0.20788734 0.17642908 -0.06988789 -0.08148947 -0.05687687 0.11979349 -0.019764215
0.39275935 0.076233804 -0.17116071 -0.3292259 0.15460229 0.174284 -0.22239518 0.063759394
0.12828562 -0.33129534 0.14476743 0.013192458 0.10650065 0.1584841 -0.118179254 0.021467337
0.029327745 -0.28795636 -0.09674011 -0.17530963 -0.22694433 0.06058983 0.113288455 -0.10291366
-0.12603109 -0.1794932 -0.11308133 -0.03505823 -0.13747185 0.21935068 -0.030947808 0.024626829
-0.14979127 0.21419561 -0.046216138 -0.1688749 -0.2622743 -0.25673673 0.07524096 0.105388656
0.10964399 -0.14437087 -0.09805761 -0.34609297 0.07247783 -0.17536429 -0.04043615 -0.025758963
-0.07589221 0.06256932 0.4130849 -0.04365426 -0.024873834 -0.025137298 -0.2575093 0.021418942
-0.18994404 -0.1373652 -0.0052520917 0.18996438 0.35920975 -0.102562554 -0.22975732 -0.03310928
-0.009230368 -0.058577966 -0.11982267 -0.2170144 -0.25209627 0.13994196 0.15415582 -0.17462029
-0.15056846 0.21669789 0.46104625 0.039080653 0.2241284 -0.19434096 0.05595983 0.3086957
0.08753069 0.067535 -0.09071743 -0.11744302 -0.06653642 0.3826465 -0.0013062853 -0.02479202
-0.18741995 -0.18858227 0.12489808 -0.27258822 0.4430263 0.09195215 -0.26801565 -0.16442643
0.1355004 -0.23698038 -0.08709355 -0.08439352 -0.043488286 -0.23729159 0.21324697 0.07790383
-0.0074999365 -0.21517532 -0.1276602 0.30087504 0.2683632 -0.25848144 -0.19127284 0.15306021
-0.10749593 -0.19323803 0.085206755 0.2709799 -0.39860204 -0.21763483 -0.21408892 -0.007170348
-0.20778994 0.017387977 -0.013639271 -0.14469153 0.08063992 0.104953036 0.18114239 0.21307118
-0.16379683 0.110601716 0.22799891 0.13670696 -0.0022654168 0.04103786 0.048627708 0.25738493
0.020669399 0.12490137 0.12144953 0.010052346 -0.04583491 -0.18139936 0.022787174 0.15546444
-0.16278793 -0.1124699 -0.04221707 0.17703503 0.27632037 -0.045034576 0.09528142 0.06549291
0.15350468 0.0036869005 0.12333884 -0.012879079 -0.003710267 0.0005004932 -0.29217923 -0.12941551
-0.123693265 0.37020326 0.31709933 -0.39132425 0.195322 -0.18102366 -0.37849084 -0.29167047
0.19198447 -0.016261928 -0.3756452 0.03359882 0.11452706 -0.32058114 0.048560083 -0.30147845
0.1420593 -0.24835637 -0.14090121 -0.043845005 -0.049341436 -0.2004464 -0.081956886 0.2940981
0.07960597 -0.093787245 -0.072007835 0.21971022 0.25596213 -0.13202545 -0.100889035 -0.13926437
0.16177425 0.043869283 -0.10586935 0.16107781 -0.23901218 0.13731691 0.121322915 0.090675324
-0.05002367 0.19446716 0.042312793 0.069501296 -0.17892917 0.10220895 0.123243876 -0.118356355
-0.18399118 -0.28363013 -0.09539945 -0.32279179 -0.24139108 -0.013311782 0.060106516 0.008480015
-0.28074914 -0.3507073 -0.07678864 0.11830316 -0.2824468 -0.21621415 -0.16655262 0.1247168

linear2.weight f4 [3, 256]
00000000: f434 21bd f077 473c 2ffd 16be 2bc8 683d
00000010: 027c 323c 8674 d9bd 0903 b8bd f804 efbd
00000020: 60ad 8dbd 471c cfbd e346 633d f627 a5bc
00000030: b312 ae3d e3ab 8fbe 4320 dabc b306 1fbe
00000040: a205 8e3d 7d16 76bd 6491 5a3d 0b20 b03d
00000050: f0e2 3f3e ce3a f53d a2be 073c 5fef 393e
00000060: 3727 07be 78c4 c9bd 95b2 653b 4afd 5dbe
00000070: 882d 62be 9f0b 30be 0bd7 dbbe d62a 62bd
00000080: 9001 5a3e f479 813d 32fc 59bd ab8a 163d
00000090: aa3a 043e 89f9 b3bc ccf9 43bd 6140 53be
000000a0: 14c2 0fbe c0d5 1b3d 13ba 14be ed64 d2bd
000000b0: 80b2 ae3d 0b23 a43d 3c2a a23d 6c8f bdbd
000000c0: bda3 073d 40da a5ba e674 a0bd 13e0 c33d
000000d0: 1205 03be 09e2 283d 94e5 0bbc 7d47 d53b
000000e0: e7b1 d83d 1f97 bfbc 5df5 93bd ca14 4fbd
000000f0: 270b 613d c32d 15bd 58b2 433c 20c5 4bbe
00000100: 2d3a c73d 8d0e e33d 0fe0 3cbe 263a 17bd
00000110: d734 bdbc 41b6 c7bd 666f fbbd 8274 273e
00000120: 9dc7 ca3d f077 d53c 7a28 a03d 76e0 71bc
00000130: c03a f53d 26e7 2dbe f372 cc3d 5aed be3d
00000140: 8b7b 623e 33af d73d 3579 2e3e c72c fe3d
00000150: ff6c 4d3e c2cb 323e e078 5f3d caa2 e13c
00000160: 5930 35be 78c2 793c 7145 373d 0c80 0cbc
00000170: f8a1 253e 8c85 8a3c ad05 ad3c a715 233d
00000180: 20cd 67be 7a55 d0bc b301 7a3d a74c 373e
00000190: bdad 44bd a862 313e 4978 ccbc acb7 10be
000001a0: 2e01 6d3d f8e3 01be aa1b 103e 73c5 fc3d
000001b0: 7eef a23d fa13 4c3d c511 d1bd 910f 233e
000001c0: b573 623e e40d 1d3e 7887 44be f73b 11bd
000001d0: a577 16be 664d 0c3e 1338 4bbe 18bf 2bbd
000001e0: 116a f439 6ba7 3abd 5550 4dbc ee62 a93c
000001f0: 27cc 043e 6a5e fabd 6e67 523c b80d 8c3d
00000200: c033 dd3d 5075 513d 17d2 cdbd 903d f93d
00000210: fb0e bc3c 6fcf 40bc 2117 963d 8ae7 f03b
00000220: 72e9 c53d 91e9 9f3e 3343 1ebe 26df ea3d
00000230: 4e32 ea3d ed6b d2bd 68d7 a4bd f1cf cc3b
00000240: 2068 32be 1707 cabc 0808 7dbe d8a7 db3d
00000250: c62a 2b3c 7a44 37be cc62 2bbd d45c 0c3e
00000260: 9a67 ec3d 0b3c 5b3e 6b31 fbbb e60d 463c
00000270: d061 063d b3d9 01bb 5d6a b73d 0773 873d
00000280: a230 5e3c bc13 db3d d83d b3bd 7aff 35bd
00000290: 622b 96bd c0fb 463c 5d19 38be 5dd2 e23d
000002a0: 7c32 853d b85c dd3d f5ad 013d c618 b7bd
000002b0: d5a7 86bd b6f7 7ebe 667b ac3c 1514 a63c
000002c0: ca0d e03c d2ca 45bc bc16 4ebe 6569 903d
000002d0: f1db 40be efa3 e4bc a2ec ffbd 7166 4abe
000002e0: 6fe6 503e 9e5c 21be e187 2c3b 4567 11be
000002f0: 646a 5dba cb1d e13d 15f0 bebc 9b32 103d
00000300: 5ff8 383c 5c11 093e 377f 453e 2731 09be
00000310: 92ac ba3d 3ab4 493e 1bf6 4d3c 649f 41bd
00000320: 5746 c2bd cbd0 7fbd 4eb0 b0bd 3fbb f3bd
00000330: 46b7 10bb 160b 02be 4404 dfbb 7601 4a3d
00000340: 142c c13d 5f3e f23d af3d 81bd 8fa3 983e
00000350: 93e6 2cbe fd6a 893d 066b fe3c a172 3b3e
00000360: 31e2 0fbd 182d 533e 2f4b 773d 0854 e23d
00000370: be8e 933d 6d64 e3bd 9e16 12be bbc3 08bf
00000380: 2363 26be 585c 3bbe 55fe bd3c c775 febd
00000390: a002 14bd e106 2dbe e5d9 f93d 7648 16be
000003a0: 8038 edbc 6cc4 9c3d 09e2 05bb 482e febc
000003b0: c2ac 4dbd 2954 c63d eab4 293e 1acd 683c
000003c0: f91d cebd 16f2 22bc dd01 83bd 5ade 52bd
000003d0: 586e 6ebd 96e4 fabd 087e 813c a1f4 213d
000003e0: 7e63 99bc 7ecc 2fbc f7d3 e1bd eb19 1b3d
000003f0: 477a 413e 86c7 2c3d a0c5 703d 5870 30be
-0.03935714 0.012174591 -0.1474502 0.05683152 0.010893824 -0.10617928 -0.08984954 -0.116708696
-0.06917834 -0.10112815 0.055487525 -0.020160656 0.0849966 -0.28060827 -0.026626712 -0.155299
0.06934668 -0.06008004 0.05336131 0.08599862 0.18738914 0.11974107 0.0082851965 0.18157719
-0.13198553 -0.098519266 0.003504907 -0.21678653 -0.22087681 -0.17191933 -0.42937502 -0.055216633
0.21289659 0.06322089 -0.053219028 0.036753338 0.12913004 -0.021969574 -0.047845647 -0.20630027
-0.14038879 0.038045645 -0.14524107 -0.10273156 0.0853014 0.080144964 0.07918212 -0.09255871
0.033115137 -0.0012653545 -0.078347966 0.09564223 -0.12794903 0.04123119 -0.008538622 0.006508766
0.10580807 -0.02338749 -0.07224534 -0.050556935 0.054942276 -0.036420595 0.011944376 -0.19899416
0.09727893 0.1108676 -0.18444847 -0.03692069 -0.023096485 -0.09751559 -0.12277107 0.16353038
0.099013545 0.026058167 0.0782022 -0.014762988 0.11974096 -0.16982707 0.09982862 0.09322615
0.2211744 0.105314635 0.17038424 0.12410884 0.2006111 0.1746054 0.054558635 0.027543444
-0.17694224 0.015244119 0.04474396 -0.008575451 0.16175067 0.016909383 0.02112087 0.03981557
-0.22636843 -0.025431383 0.061036777 0.17900334 -0.048017252 0.1732279 -0.0249597 -0.14132565
0.057862453 -0.1268462 0.14073053 0.12342348 0.07955836 0.04982374 -0.102084674 0.15923907
0.22114451 0.1533733 -0.19192302 -0.035457578 -0.14694078 0.137014 -0.1984561 -0.041930288
0.00046618332 -0.04556982 -0.01253136 0.020677056 0.12968503 -0.12225039 0.012842042 0.06838554
0.10800886 0.05113727 -0.10049837 0.12169945 0.022956362 -0.011768206 0.0732863 0.0073518204
0.09663667 0.31232885 -0.15455322 0.114683434 0.11435376 -0.102744915 -0.08048898 0.0062503745
-0.17422533 -0.024661584 -0.24710095 0.10725373 0.01044721 -0.17897215 -0.041842267 0.13707286
0.11543198 0.21409623 -0.007665803 0.012088275 0.032808125 -0.0019813597 0.08955834 0.066137366
0.0135614 0.106971234 -0.0875203 -0.044433095 -0.07332493 0.012144983 -0.17978425 0.1107528
0.0650377 0.108087 0.03166004 -0.08940272 -0.0657498 -0.24899182 0.021054935 0.020273248
0.027350325 -0.012072282 -0.2012586 0.070513524 -0.18833901 -0.0279102 -0.12496306 -0.19765641
0.20400403 -0.15757987 0.0026326107 -0.1419955 -0.00084463344 0.10992011 -0.02330784 0.03520451
0.011289685 0.13385528 0.1928681 -0.13397656 0.091149464 0.19697657 0.012570883 -0.047271147
-0.094860725 -0.06245498 -0.086273775 -0.11900949 -0.0022081896 -0.12699541 -0.0068059284 0.0493178
0.09432235 0.118283026 -0.06310593 0.29812285 -0.16884832 0.067098595 0.031056892 0.18305446
-0.035127822 0.2062267 0.060374435 0.11051184 0.0720496 -0.11103139 -0.1426644 -0.5342366
-0.16248755 -0.18296945 0.023192564 -0.12424808 -0.036135316 -0.16897155 0.12199763 -0.14676079
-0.028957605 0.07654652 -0.0020428917 -0.031027928 -0.050213583 0.09684021 0.1657292 0.014209056
-0.100643106 -0.009945413 -0.0639684 -0.051481582 -0.0582107 -0.122506306 0.015807167 0.039539937
-0.0187242 -0.010729907 -0.11026757 0.037866514 0.18894301 0.042182468 0.05878222 -0.17230356

linear2.bias f4 [3]
00000000: 5935 9dba eaef 9d3d 972e 7a3d
-0.0011994048 0.077117756 0.061079588
